data.pth (torch, 7935 bytes, 6 tensors)

l1.weight f4 [8, 119]
0	0x3eb15713	0.34636745
1	0x3e968c31	0.29403833
2	0xbe2c4668	-0.16823733
3	0x3ec820e5	0.39087597
4	0x3de795ee	0.11307894
5	0x3f12c614	0.57333493
6	0x3f38b755	0.7215474
7	0x3e148257	0.14502846
8	0x3f391cb8	0.72309446
9	0xbc812c4a	-0.015768189
10	0x3ee988c4	0.45612156
11	0xbec1c84a	-0.3784812
12	0x3ee4900b	0.44641146
13	0x3edb7187	0.42860052
14	0x3ee49f56	0.44652814
15	0xbc9ec2bb	-0.019379964
16	0xbe8cdc5d	-0.27511874
17	0x3eb171b2	0.34657055
18	0x3e9d1f43	0.30687913
19	0x3e9924b8	0.29910827
20	0xbd87450c	-0.066049665
21	0xbd954da6	-0.07290201
22	0xbe032d7a	-0.12810317
23	0x3f359725	0.70933753
24	0xbe6eb6d6	-0.23311934
25	0x3e97c09a	0.2963913
26	0x3e70a7fe	0.23501584
27	0xbf01c844	-0.50696206
28	0xbe99a271	-0.30006745
29	0xbcd80c36	-0.02637301
30	0x3eadf064	0.33972466
31	0x3e484316	0.19556841
32	0x3f28b3ee	0.6589955
33	0x3f0cd74f	0.55016035
34	0x3ef6e646	0.4822256
35	0x3e9e96cf	0.30974433
36	0x3ea8ce7a	0.3297003
37	0x3e81ffab	0.25390372
38	0x3eb2b864	0.34906304
39	0x3ed6b02a	0.41931278
40	0xbe0320b5	-0.12805445
41	0x3e9a0277	0.30080006
42	0x3ea4f43f	0.32217595
43	0x3e82d517	0.255532
44	0x3d86e575	0.06586734
45	0x3f1d40bb	0.61426896
46	0xbe10cb53	-0.14140062
47	0x3ee5a6f6	0.44853944
48	0xbe19dfb0	-0.15026736
49	0x3eccab59	0.39974478
50	0xbdb1c591	-0.08680261
51	0x3f2f762f	0.6853971
52	0x3e68726c	0.22699898
53	0xbd9fd1ad	-0.07803664
54	0x3e132fda	0.14373723
55	0xbe46c039	-0.19409265
56	0x3ebf00ec	0.3730539
57	0x3e32b775	0.17452796
58	0xbe06786f	-0.1313188
59	0xbef74f3c	-0.4830264
60	0xbcf4d55b	-0.029886892
61	0x3ef6c556	0.4819743
62	0x3f8ebef1	1.1152021
63	0x3e2d79af	0.1694095
64	0x3ed7de10	0.42161608
65	0x3f3431e3	0.7038862
66	0xbf01c4ca	-0.506909
67	0x3ee8ef15	0.45494905
68	0x3e89dcbf	0.26926228
69	0x3ef71e90	0.48265505
70	0xbe8d37e9	-0.2758172
71	0xbdb7fc95	-0.08983723
72	0x3e536a8c	0.20646113
73	0x3ea8c8fa	0.32965833
74	0xbd9c8725	-0.07642964
75	0x3ecc8486	0.39944857
76	0x3ef985cd	0.48734894
77	0x3e31b1a0	0.17352915
78	0xbe4061b2	-0.18787268
79	0xbe6d72d0	-0.23188329
80	0x3ea1b812	0.31585747
81	0x3ed83480	0.42227554
82	0xbe56fa3f	-0.20993899
83	0x3f03cc3c	0.5148351
84	0x3f0251d1	0.5090609
85	0xbe0305ed	-0.1279523
86	0x3e337b16	0.17527422
87	0x3f046622	0.5171834
88	0x3eb8a983	0.36066827
89	0x3ec6a37e	0.3879661
90	0x3eeaf174	0.4588734
91	0x3f41938e	0.75615776
92	0xbc1661cf	-0.009178593
93	0x3d9f1526	0.077677056
94	0x3f36f7c6	0.7147182
95	0x3f1ba4d1	0.60798365
96	0xbe53e3a0	-0.20692301
97	0xbec0625a	-0.37575036
98	0xbe6d6376	-0.23182473
99	0xbe030721	-0.12795688
100	0x3ea23f03	0.316887
101	0x3e901708	0.2814257
102	0x3daeeb57	0.08540981
103	0xbb6a922d	-0.0035792694
104	0xbe97f63b	-0.29680046
105	0xbf040248	-0.5156598
106	0x3e1d7da7	0.15379964
107	0xbe120395	-0.14259179
108	0xbdef3e1a	-0.11681767
109	0xbe83c437	-0.25735638
110	0x3f27e6c7	0.65586513
111	0xbcfdd22f	-0.030984012
112	0xbd696a9e	-0.056986444
113	0x3e8c7c66	0.27438658
114	0xbe5747f6	-0.21023545
115	0xbd5c86b1	-0.05383939
116	0x3f08a84b	0.53381795
117	0x3ecb7435	0.39737096
118	0xbe549e06	-0.20763406
119	0xbe22a86f	-0.15884565
120	0x3efdf7bf	0.49603078
121	0x3e9d1c8d	0.30685845
122	0xbe20285e	-0.15640399
123	0x3c5b6d8c	0.013392817
124	0x3ebd9d26	0.37033957
125	0xbe1d1e56	-0.15343603
126	0xbc62e98c	-0.013849627
127	0xbb014dc7	-0.0019730197
128	0x3e6f0c33	0.23344497
129	0x3f50d587	0.81575817
130	0x3f821c8c	1.0164962
131	0xbe126c8a	-0.14299217
132	0xbeb6baca	-0.35689384
133	0xbf1b2fa8	-0.6061959
134	0xbd92c43c	-0.07166335
135	0x3f516d95	0.81807834
136	0xbda066c7	-0.07832103
137	0xbe3f2064	-0.186647
138	0x3e9e3582	0.30900198
139	0x3eba76de	0.36418813
140	0x3e859886	0.2609293
141	0x3f1fde77	0.6244883
142	0xbe96b7ce	-0.29437107
143	0x3e6c1124	0.23053414
144	0xbf09eb51	-0.5387469
145	0xbefb739c	-0.4911164
146	0x3f6b8849	0.9200483
147	0x3ed7ed5e	0.42173284
148	0xbebce254	-0.36891425
149	0x3f172d16	0.5905317
150	0xbdd8df1e	-0.10589431
151	0x3e1ef0fb	0.15521614
152	0x3e46bc36	0.19407734
153	0x3e870359	0.26369742
154	0xbe349f70	-0.17638946
155	0xbef6e40c	-0.4822086
156	0x3ecce6fc	0.40019977
157	0xbe583cff	-0.21117018
158	0x3dfdb202	0.12387468
159	0x3f12a13c	0.57277274
160	0xbd63ea18	-0.05564317
161	0x3f011eeb	0.504378
162	0xbcbe6759	-0.02324264
163	0x3e67bcfb	0.22630684
164	0xbeb140fc	-0.34619892
165	0xbd932dc3	-0.07186463
166	0x3e85801d	0.26074305
167	0x3e902c25	0.2815868
168	0xbd80cc0f	-0.06288921
169	0x3eb58f57	0.35460922
170	0x3ed03479	0.40665033
171	0x3c3f6461	0.011681647
172	0x3e952d9f	0.2913637
173	0x3ec18238	0.37794662
174	0x3e83c44c	0.257357
175	0xbf027091	-0.5095301
176	0xbe45e85c	-0.1932692
177	0x3edfe498	0.4372909
178	0x3f121ceb	0.57075375
179	0xbd0c0b9f	-0.03419077
180	0x3e016cf4	0.12639219
181	0x3d93f5e5	0.07224635
182	0xbe366de8	-0.17815363
183	0x3f0c241a	0.54742587
184	0xbf208982	-0.6270982
185	0x3f0bd214	0.5461743
186	0xbea03ee1	-0.31297973
187	0x3ea7e5c2	0.3279248
188	0x3ef8c599	0.48588255
189	0x3f5948fc	0.8487699
190	0x3ea39390	0.3194852
191	0x3f017030	0.5056181
192	0x3f5a9d5d	0.8539637
193	0x3e5b288e	0.21402189
194	0xbe014748	-0.12624848
195	0x3ebbc652	0.36674744
196	0xbe356ab9	-0.17716493
197	0x3ee7b458	0.4525478
198	0x3f0b314f	0.54372114
199	0xbdff3df2	-0.12462987
200	0xbe0744d3	-0.13209848
201	0x3f433fa3	0.76268977
202	0x3d9abfeb	0.07556137
203	0x3d6b878e	0.057502322
204	0x3f2858c4	0.65760446
205	0xbe9152f2	-0.28383595
206	0x3e4a0519	0.19728507
207	0x3f10c5a7	0.56551594
208	0xbddb009b	-0.10693475
209	0xbd327ad7	-0.04357418
210	0xbbe599a3	-0.0070068403
211	0x3dc852ad	0.09781394
212	0x3eed6b86	0.46371096
213	0xbe4100a9	-0.18847908
214	0xbde12b13	-0.10994544
215	0x3e8b881b	0.27252278
216	0x3eb03784	0.34417355
217	0x3f343356	0.7039083
218	0x3f021344	0.50810647
219	0xbe07fe51	-0.13280608
220	0xbee40a75	-0.44539228
221	0xbdb8c2ca	-0.09021528
222	0x3e8b1a30	0.27168417
223	0x3f322857	0.69592804
224	0x3f1a0827	0.6016869
225	0xbea4da82	-0.32197958
226	0x3e35b7ad	0.17745848
227	0x3ea81b12	0.32833153
228	0x3f239337	0.6389651
229	0x3d7a6bf0	0.061138093
230	0x3e4faf30	0.20281672
231	0x3e9f4a52	0.3111139
232	0xbcaeb5e1	-0.021326961
233	0x3e6dace7	0.23210488
234	0xbe7c420f	-0.24634574
235	0xbca21a36	-0.019787889
236	0xbed9a8b5	-0.42511526
237	0x3eb0fcb0	0.34567785
238	0x3e8c7119	0.27430037
239	0xbead391d	-0.33832636
240	0x3eeea60f	0.46611068
241	0x3f2ca3ac	0.67437243
242	0x3e7817b4	0.24227792
243	0xbd70cf80	-0.058791637
244	0x3ed7ca8a	0.42146713
245	0x3ea71382	0.3263207
246	0x3f01e74e	0.5074357
247	0x3e10f7a9	0.14156975
248	0xbeee6be1	-0.4656668
249	0xbeda23f3	-0.42605552
250	0x3e8492ba	0.25893193
251	0x3ee8369d	0.45354167
252	0x3f58e93a	0.84730875
253	0x3e881a2e	0.26582474
254	0xbe9a2a7e	-0.30110544
255	0x3e64eac5	0.22355182

l1.bias f4 [8]
0	0x3f012b84	0.50457025
1	0x3f1d6e3c	0.6149633
2	0x3f229429	0.63507324
3	0x3f02d1fe	0.5110167
4	0x3f72f834	0.9490998
5	0x3f5a906b	0.85376614
6	0x3f01215c	0.5044153
7	0x3f4ea40b	0.8071906

l2.weight f4 [8, 8]
0	0x3dea592e	0.11442791
1	0xbe217015	-0.15765412
2	0x3e5473c9	0.20747294
3	0x3e17d901	0.14828874
4	0xbe1d3e91	-0.15355898
5	0xbe322241	-0.1739588
6	0xbe304c17	-0.17216526
7	0xbe269aa8	-0.16269934
8	0x3fc3de3c	1.5302196
9	0xbf5054f4	-0.8137963
10	0x3f73eff6	0.95288026
11	0x3f8a0a3a	1.0784371
12	0xbead8d70	-0.3389697
13	0x3e91d41e	0.28482145
14	0xbf28ad74	-0.6588967
15	0x3eee3e24	0.46531785
16	0xbf1b8190	-0.6074457
17	0x3f305ace	0.68888557
18	0x3f3392e5	0.7014602
19	0x3e799e0f	0.24376701
20	0x3f720b33	0.9454834
21	0x3f8dc1b5	1.107474
22	0x3f7847ed	0.9698475
23	0xbf23acd8	-0.63935614
24	0xbe650336	-0.22364506
25	0xbefce47e	-0.49393076
26	0x3fa2feac	1.273397
27	0x3f707e50	0.9394274
28	0x3d0ba651	0.03409416
29	0x3f8f1b81	1.1180269
30	0x3eaebd5b	0.34128842
31	0xbeb313f6	-0.34976166
32	0x3e410307	0.18848811
33	0xbf3347a2	-0.7003118
34	0x3fa16028	1.260747
35	0xbfb5a09b	-1.4189638
36	0xbea7e158	-0.3278911
37	0x3f0ee8fd	0.5582426
38	0x3f52f255	0.8240102
39	0x3e2331c5	0.15936954
40	0xbf6d9256	-0.92801416
41	0x3f54d4f9	0.8313747
42	0x3e55715c	0.20844024
43	0xbe84bc80	-0.25925064
44	0x3f7c24a9	0.9849344
45	0x3f85142d	1.0396782
46	0xbf2bc8d3	-0.6710331
47	0x3f95661a	1.1671784
48	0x3f66647b	0.8999707
49	0xbf412e72	-0.75461495
50	0x3f2f293b	0.6842229
51	0x3e85fbf3	0.26168784
52	0x3e8d5a72	0.27608067
53	0xbf0f7e06	-0.5605167
54	0xbe5eb07c	-0.21747011
55	0x3f471ade	0.7777537
56	0x3f83a537	1.0284795
57	0x3fa83a57	1.3142804
58	0x3e5797a7	0.21053945
59	0xbf301a0f	-0.6878976
60	0xbc891724	-0.016734667
61	0x3ee1c402	0.44094855
62	0x3fd937ba	1.6970131
63	0xbf9d693b	-1.2297739

l2.bias f4 [8]
0	0xbed97945	-0.42475334
1	0x3f331dc5	0.699673
2	0x3e9df8e1	0.30853942
3	0x3d6eb2b7	0.058275905
4	0xbdc24b91	-0.094870694
5	0x3f45b3e3	0.7722761
6	0xbd953b8f	-0.072867505
7	0x3dadd34d	0.08487568

l3.weight f4 [7, 8]
0	0xbe7f7d1a	-0.24950066
1	0x3ea77cc1	0.32712367
2	0xbfb2b405	-1.3961188
3	0x3d4058a7	0.046959545
4	0x3f59f858	0.8514457
5	0xbf495b2c	-0.7865474
6	0x3f6c144a	0.9221846
7	0xbfc3f6e5	-1.5309721
8	0xbe6cad36	-0.2311295
9	0xbf50de83	-0.81589526
10	0x3ecf6a9b	0.4051102
11	0xbf68b2ca	-0.9089781
12	0xbf931cbd	-1.1493145
13	0x3f7a7005	0.9782718
14	0xbf9b0295	-1.2110163
15	0xbf8d0cc3	-1.101952
16	0x3e74e1a8	0.23914206
17	0x3de609bd	0.11232326
18	0xbe8cec6f	-0.27524135
19	0x3f363ea5	0.7118934
20	0x3f5a12be	0.8518485
21	0xbfae5f02	-1.3622744
22	0xbf804eab	-1.0024008
23	0xbe057aa9	-0.13035072
24	0xbe601dc1	-0.2188635
25	0x3f3b9d3c	0.73286796
26	0xbfa5f0d4	-1.296412
27	0xbeb6fab9	-0.3573816
28	0xbfe96493	-1.8233818
29	0xbf938d54	-1.1527505
30	0x3e716ecb	0.2357742
31	0x3efedd83	0.49778375
32	0xbe932e86	-0.28746432
33	0xbf5e1f98	-0.8676696
34	0x3ef9e377	0.48806354
35	0xbfe38bfe	-1.7777097
36	0xbdf92a17	-0.12166231
37	0xbf6f0ce1	-0.93379027
38	0xbf780300	-0.9687958
39	0x3f658165	0.89650565
40	0x3e98abf5	0.29818693
41	0xbfa9b824	-1.325932
42	0x3ec809d4	0.39069998
43	0x3f16983e	0.58826053
44	0x3f0b80d9	0.5449348
45	0xbe8a18e3	-0.26972112
46	0xbfe058a6	-1.7527053
47	0xbbd607b9	-0.0065316823
48	0x3e7ba215	0.24573548
49	0x3ed0b453	0.40762576
50	0x3ee64fdf	0.44982812
51	0x3f3bd942	0.73378384
52	0xbf9ca5a1	-1.2238046
53	0xbc27d1bd	-0.010242877
54	0xbe456835	-0.19278033
55	0xbfda5326	-1.7056625

l3.bias f4 [7]
0	0xbef36283	-0.47536096
1	0x3e1d3ae8	0.15354502
2	0xbf245971	-0.64198977
3	0x3ef51fae	0.47875732
4	0x3e86b7da	0.26312143
5	0xbf0ff450	-0.56232166
6	0xbdde4d17	-0.108545475
